weights/best-0128.pth (torch_old, 278146 bytes, 6 tensors)

conv1.weight f4 [64, 3, 9, 9]
00000000: 45b3 853b 9111 76bd 9c93 e6bc 7b6f 5a3d
00000010: 6153 923d e1e7 b53d 8bab 0dbb b836 123d
00000020: 3891 e0b9 edc5 25bc 6f54 85bd 5db3 4fbc
00000030: 9a17 15bd 7709 2c3d 68af 203d f3e4 16bc
00000040: 8cc1 ccbc 350d 75bd 1983 24bd 91a8 b23d
00000050: 94b6 8c3c 393a 343d b311 0d3d 1496 633c
00000060: 59d8 99bd 5053 003d b820 b1bc 5942 af3d
00000070: 7b9b 113e 65ac 183d 28a4 da3c 868d ee3d
00000080: c7e7 7d39 d5f1 83bd f562 573d 1ff0 b03d
00000090: 7ee4 5e3d 7dd6 f03d a7d5 9bbd b746 583d
000000a0: c28e ba3e bd1b 123e 1590 81bd e130 d23d
000000b0: 6ca8 7c3d 99f3 0f3c cb08 07bc 31a2 01be
000000c0: 506c 5fbd 22ca c6ba c294 a8bd c120 423d
000000d0: 4acf 413d 0bd3 f83d 0704 f03b 6e94 8dbc
000000e0: d3bd 8cbc d0df ca3c 2f7e 4f3c 744e 653d
000000f0: 8116 b5bc cb02 dc3c dcfb 98bd f60a 63bd
00000100: 10f2 f13c cd01 ee3c 38c1 983d c58e c63d
00000110: d57c 6c3d 219d 7cbc e3b5 febc 4ea4 80bd
00000120: d59f 23bd 4513 65bd f17e 643d aa3a c43d
00000130: 41ac bc3d 3be8 273d fec1 b4bc 82ed 9bbc
00000140: 3b0d f9bc 1f2c 713d 74a1 05ba f2d8 df3a
00000150: d70c f8bd 2644 62bd 1b44 1cbe 1963 463d
00000160: 612e 2dbd f935 183d 883c cfba b9f1 2e3d
00000170: 8711 8a3c e652 07bc 7ee1 bb3b 1413 9f3c
00000180: a18b 033e 2e02 ab3d aff1 8d3c a56e 343b
00000190: fab6 803b aa7a 94bd d947 e5bc a77f aabd
000001a0: cc56 e3bd e50b 39bd 0fc9 91bc b1c4 933d
000001b0: ab02 25bc 0ff0 8dbd 57ee a33c ff2a c2bd
000001c0: 5005 1f3e 9407 51bd 8fdb b8bc a519 f83b
000001d0: ad4b 92bd 351f 21bd b453 023d 66b9 9b3d
000001e0: 48d3 0c3e 9b1f 2b3f 21ea b13e e3e6 94bb
000001f0: e116 063d 6a51 bdbd ad62 bfbb 8132 1fbc
00000200: a0db a83b f382 d83d ca1b 4e3e 8282 86bc
00000210: 7396 3b3d 76f6 7abd 0152 78bd da80 12bc
00000220: c9c3 7c3c 7157 123d ac65 6dbd 64b3 5cbb
00000230: defd 3d3d 1041 3fbc 7950 833c 7f34 df3c
00000240: ffbb 0ebb cb46 3bbc cb75 483c 8d4a c4bc
00000250: f830 21bc 2d31 5fbb 07b6 753c 937d e7ba
00000260: 609c c9bb 7a22 c13c 3fe0 e5bc a066 9f3a
00000270: fa72 0bbe 8137 20bd b719 53bd 59a3 a03c
00000280: 4722 3fbd 04f1 f83c ebd3 e2bc 564d 373d
00000290: 8b3d 803d 8ee2 6d3c 6ca1 8e3c d8ec 83bd
000002a0: 1567 0b3d f863 c1bd 6a06 4d3c 08ba ffbc
000002b0: 4100 073c 99cd 533d f6af 073b 6f4f 62bc
000002c0: b942 9dbd a0f3 9b3c f376 47bc 1c43 1bbd
000002d0: 2887 663d e48a 65bd 4b20 8f3d 4dbe bebc
000002e0: 0e31 9abd b76a 89bc c4c6 823d 929c 7abc
000002f0: 5a65 143d 2400 87bd 5a0d bdbd e093 93bd
00000300: 38c7 40bd 394d f33d afc0 0bbe 6475 f3bb
00000310: 2322 e2bc 8586 85bc 94d5 3abd 2790 66bd
00000320: 0d9d 0fbe d7da 8f3d c6b7 053f aac1 cc3d
00000330: 9c5b afbd a1e3 d6bd f779 21bd 017b 5fbd
00000340: 67d2 8abd 6304 f23c 6c32 653c 805a f33d
00000350: 518e 38be cd11 8bbc 2686 b4bc 00d2 61bd
00000360: 06ad 883d 5eca d03c 69b8 943d 51c7 c8bd
00000370: 4609 bfbd 201c c9bd 42ce a03c 2bdf e0bc
00000380: 643a 263d ed21 f3bc 1997 aa3c af20 72bd
00000390: f23d 433b 00be 3ebd 85d5 3cbd 0368 df3c
000003a0: 1fac 22bc 6e7e c53d 0dd1 b63d deae 3f3c
000003b0: 64b4 c53c ffe6 3ebc e3e9 afbd 6dce 52bd
000003c0: fc9d 863d 8323 003c 5b1c db3c 7e7e 8f3a
000003d0: 1f11 663c fd55 cf3d 7a16 59bd 01d5 123e
000003e0: 91df bbbd 8a45 b5bb 15eb 02be 1ee6 0f3c
000003f0: 0c92 04bc 71da 05bd 63f0 da3d de9f 783d
0.0040802085 -0.060075346 -0.028146558 0.053328972 0.071448095 0.08882118 -0.002161714 0.035696715
-0.00042832806 -0.01011799 -0.06510245 -0.012677041 -0.03639946 0.042001214 0.03922978 -0.009209859
-0.024994634 -0.05982705 -0.040164087 0.08723558 0.017176904 0.044000838 0.034440707 0.013890762
-0.07511968 0.031329453 -0.021622047 0.08557577 0.14219467 0.037273783 0.026689604 0.11648087
0.00024214304 -0.0644261 0.052584607 0.086395495 0.054417126 0.117596604 -0.0760911 0.052801814
0.3643704 0.14268394 -0.063263096 0.10263229 0.061684057 0.008786106 -0.0082418425 -0.12659527
-0.054546654 -0.0015166441 -0.08231498 0.047394518 0.047316827 0.12149628 0.007324699 -0.01728269
-0.017180359 0.024764925 0.012664362 0.05598302 -0.022105457 0.0268568 -0.07469913 -0.055430375
0.02953437 0.029053593 0.074587286 0.096952 0.057736237 -0.015418322 -0.03109259 -0.06281339
-0.03994735 -0.05592658 0.055785123 0.09581502 0.09212542 0.040992957 -0.022065159 -0.019034151
-0.030401817 0.058879968 -0.0005097606 0.0017078205 -0.12111824 -0.055240773 -0.15260355 0.04843435
-0.04228056 0.037160847 -0.0015810886 0.042710993 0.01685406 -0.008259511 0.005733668 0.019418277
0.12846233 0.08350025 0.017327158 0.002753177 0.0039280625 -0.07249959 -0.027988361 -0.08325129
-0.111005396 -0.04517736 -0.017796068 0.0721525 -0.010071437 -0.06930553 0.02001111 -0.09480857
0.1552937 -0.051032618 -0.022565631 0.0075714164 -0.0714334 -0.039336402 0.031818107 0.07603721
0.13752472 0.668451 0.3474894 -0.0045441254 0.032736663 -0.09244044 -0.0058406205 -0.009716631
0.0051531345 0.105718516 0.20127788 -0.016419653 0.045797776 -0.0612702 -0.06062508 -0.008941853
0.015427538 0.035727922 -0.05795829 -0.003367626 0.046384685 -0.011673227 0.016029583 0.027246712
-0.0021779535 -0.011430453 0.012235115 -0.02396133 -0.009838335 -0.003405641 0.014997012 -0.0017661325
-0.0061526746 0.02357601 -0.02806103 0.0012161322 -0.13618079 -0.039115433 -0.051538195 0.01960914
-0.04666355 0.030388363 -0.027688941 0.044751488 0.062617384 0.014519347 0.017410956 -0.06441659
0.034033854 -0.09442896 0.012513736 -0.031216636 0.008239807 0.051709745 0.0020704246 -0.013812884
-0.07678742 0.019037068 -0.012174356 -0.037905797 0.05628124 -0.05604066 0.06988581 -0.023284102
-0.07528888 -0.016774518 0.06385568 -0.015296118 0.03622947 -0.06591824 -0.09231062 -0.07205939
-0.04706499 0.118799634 -0.13647722 -0.0074297655 -0.027604168 -0.016299495 -0.04561384 -0.05628982
-0.14024754 0.07024162 0.5223354 0.09997876 -0.08562395 -0.104926355 -0.039422955 -0.054560665
-0.06778412 0.029543107 0.013989072 0.11882496 -0.1802304 -0.016976262 -0.022036623 -0.055131912
0.066736266 0.025487121 0.07261736 -0.098036416 -0.09327941 -0.098198175 0.019629601 -0.027450165
0.04058303 -0.029679263 0.020824002 -0.0591132 0.002979156 -0.046567917 -0.046102066 0.027271276
-0.009928732 0.09643255 0.08926592 0.011699406 0.024133869 -0.011651753 -0.08589532 -0.051466394
0.06573102 0.007820967 0.02674692 0.0010947732 0.014042168 0.10123823 -0.05299995 0.14339067
-0.09173501 -0.0055319713 -0.12784989 0.008782892 -0.008091461 -0.032679025 0.106903814 0.060699336

conv1.bias f4 [64]
00000000: ac20 d8bf 2a51 bf3d 153b a0bd d65a f4bd
00000010: 6b1f 00be 7232 fe3d 78e4 85be 0f0d 28bc
00000020: e1a7 4b3d 58df 0a3d 3049 7bbd ae51 57be
00000030: 84dd 223e 680d 773e 7842 64be dc37 3fbe
00000040: 5bb2 d4bd 0a80 c8be 35a2 7abc 3a4f 19be
00000050: 02a0 423c d621 15bd 5dd6 5bbe 54c3 d2bd
00000060: d451 9bbc ddc3 cd3b fcad 733d 87ac 16be
00000070: f388 9c3d 4d7b d4be ccf2 a1bd 6b35 123e
00000080: b558 db3d 40df 77bd fbfe 8abd c5c0 34be
00000090: 1681 96bd 4f91 babb 0b2a 573d 9027 87bd
000000a0: c3a5 f3bd f3fb 03be 70a6 63bd 79c9 6e3d
000000b0: 96f6 8dbc 79eb 2fbe 4e4b 8b3d 5d0c 19bc
000000c0: 6157 aebe 8bdd 9c3d 889f 55bd d867 92be
000000d0: aaac 713d e15d f03d e6fd 833c 5a12 23be
000000e0: 658c 8cbd d143 71bd c14e 283e 6791 33be
000000f0: e6e0 9cbd 0f00 dcbd f5af e1bf 32ba 243e
-1.6884971 0.09341653 -0.07823769 -0.11931388 -0.12511985 0.124119654 -0.2615087 -0.01025702
0.04972065 0.033904403 -0.061349094 -0.21027252 0.15904814 0.24126208 -0.22290981 -0.18673652
-0.10385581 -0.39160186 -0.015297462 -0.14971629 0.011878969 -0.03640922 -0.21468492 -0.10291162
-0.018959917 0.0062794522 0.059492096 -0.14714251 0.076433085 -0.4150032 -0.07907638 0.1427819
0.10710279 -0.060515642 -0.06786915 -0.1765166 -0.0734884 -0.0056935917 0.05253033 -0.06599343
-0.11896851 -0.1288908 -0.05557865 0.058297608 -0.017329495 -0.1717967 0.068014726 -0.009341327
-0.3405104 0.076594435 -0.052154094 -0.28594851 0.059002556 0.11736656 0.01611228 -0.1592497
-0.06862716 -0.058902565 0.16436292 -0.17535935 -0.076600835 -0.10742199 -1.7631823 0.16086653

conv2.weight f4 [32, 64, 5, 5]
00000000: 2be3 593e e641 dcbe c1cf bfbc 2922 d0bd
00000010: d771 ec3e a6a6 47be 170a b23d 120d 663e
00000020: 3922 f0bd 9f8a c5be 47b7 493e 7d66 063e
00000030: b3ed 88bd 4da0 103e 7603 b9bd f83f ad3e
00000040: 4920 02be 54c2 e4be 0da3 cabd 0405 463e
00000050: ccec 993e 3af2 bebe a181 193e f483 c83c
00000060: 070b 9b3d 8828 2d3e fabd 833e 2717 97bc
00000070: 6220 713e 33a9 a83d 6b65 79be 7d62 15be
00000080: cd72 153c a8e1 25be fa4d 37be d860 a23d
00000090: 3a61 3e3e 2093 023f a9ad 7e3e 9f59 853e
000000a0: 68d8 3abe 7ce2 4bbe 879c a1bd d348 37be
000000b0: cdf6 fabd 6fba f23c 5ac6 91be a78a 933e
000000c0: 8a3c bc3b 9436 b43d a7f7 32bf f852 c6be
000000d0: 192a 293e 580c 77be 0f92 8dbe a316 8cbe
000000e0: 3dcc 9e3d 5f3b 093f b400 f93d 26c6 963d
000000f0: 488b 2a3e 078d a93e 04ae bb3e 5136 fc3d
00000100: b332 103e 9123 c9bd 1026 cd3d ec1b 813d
00000110: 7357 52be 6383 02be 6fbb a5be 7322 ca3d
00000120: 5c3b 423e 50b4 04be 89d5 45be eaa7 803d
00000130: 9b9b 1c3e 980d 463e fed5 3fbb 49c9 3d3e
00000140: 0d0e 3e3d 5b39 18be b87e 8a3d 61d9 78be
00000150: a397 07be f913 02bd 4fad c23d 2ac4 be3d
00000160: 9f0b 0fbe 5b94 8a3b 00d7 ff3d 2e58 923c
00000170: 87a6 43bc 2483 41be 6f2d 0bbd 3d02 e9bc
00000180: 97b3 a8bd 22c0 d6bc 010d 193e db21 743e
00000190: 5b09 8e3a 2772 d13d d4d7 0c3d d112 0ebe
000001a0: 19d0 3c3c 9aed 8fbd 22f2 23be 5d87 79bd
000001b0: 9ee6 0bbe ee7b 783c ad4c 22be da02 22bd
000001c0: 3053 f8bc 523c 433d e712 87bc 53a7 663d
000001d0: 5cc9 943d 5cac 6b3d d70f 563d b059 e83c
000001e0: a634 30bc 0755 01bc 88cd 26bd 27fb d33d
000001f0: e4ec 7fbc fee2 04be d25d d8bc 195f 393e
00000200: 8040 19be 2fe2 2b3d a6e9 283e 9316 2c3e
00000210: 0677 dd3d 654e 58be 71ef 86bd 2d2c dbbd
00000220: f09a 1c3c cfac f13d f4b2 30be 8b8e 133d
00000230: e30f 1bbe 7589 87be 9621 f33c d80d 71be
00000240: f566 ff3c 30c8 833e fca8 f9bc 0155 5f3d
00000250: d72a 753d 299f a13d b48d 26be 5661 283e
00000260: eab3 32be 6045 4a3e a003 dcbd 3239 383e
00000270: 476f c9ba f003 5c3e 5f05 793e 96b1 b1bd
00000280: 6581 45be 0b5b 48bd 48a6 a5bd 739a 863d
00000290: 3420 9dbe d194 0d3e c4ef da3d 08c5 213e
000002a0: 5d49 143e 9760 eabd d962 afbb 5840 9ebe
000002b0: f894 403e d21a 24be d1e8 133c 2d0d 733e
000002c0: 0200 5cbb cdde f73c e574 a03d e339 df3d
000002d0: cce6 adbe 7a4f 4abe 6904 91bc 95d8 203c
000002e0: c59e 59be 8dd1 623e 8d62 8e3d 92ad 543e
000002f0: 0a42 3f3e c866 213e 081b 9b3d 6ef6 89be
00000300: 0268 9cbd 8690 98bd 175f c8bd 8089 01be
00000310: ab96 a9bd c731 2abd 0d50 8ebd 5ee5 b4bd
00000320: b2e0 92bd 50f8 8d3e fbe0 1d3e 35ff 97be
00000330: 5751 d53e 4dba 1dbe 7a79 dbbd 6f4d a23d
00000340: d1bf 51be bb6b 41bd f5dc 04be 7ac0 57be
00000350: c29c 523d adec 2e3d ad16 3cbd d4b9 413e
00000360: 9ae3 823c 633e 4e3d 2361 76ba b9c6 5b3e
00000370: 9b8e 343d 642d 19bd 868d 2bbc c0ce 2f3c
00000380: 9e34 cf3c 66b0 f2b9 6aab 36bd 68f3 4e3e
00000390: 0be7 8ebd 40ad 043e 0503 d93d 6889 02bd
000003a0: 1577 eebd bc8d 3fbe 8e4d ad39 9aaa 5e3d
000003b0: 0642 433d 4038 44bc 71ae 0fbd d11d c93d
000003c0: 983a 163d cf28 cebb 496d 7abd cb26 0fbe
000003d0: 5e4a 5dbd 2136 063d e642 c03d 4d04 81bc
000003e0: 1b7b 0fbe 9ee9 033e 5b4d 703d 22de a4bc
000003f0: e1da 71bd d9e0 ae3d fb75 6c3d db58 c5bd
0.21278064 -0.43019027 -0.023414494 -0.101627655 0.46180603 -0.19497165 0.08693331 0.22465923
-0.117252775 -0.38582322 0.19698821 0.13125034 -0.066859625 0.1412365 -0.09033863 0.33837867
-0.12707628 -0.4467951 -0.09894381 0.19337851 0.30063474 -0.3729418 0.14990856 0.024476983
0.07570463 0.16909993 0.25730878 -0.018443657 0.2354751 0.08235397 -0.24355094 -0.14588352
0.009121609 -0.16199362 -0.1790084 0.07928628 0.18591776 0.51005745 0.24870934 0.26044938
-0.18246615 -0.19910616 -0.07891183 -0.17898874 -0.12254105 0.029629914 -0.28471643 0.2881672
0.0057445215 0.087994725 -0.6990914 -0.38735175 0.16519965 -0.24125803 -0.27650496 -0.2736102
0.07753799 0.5360622 0.12158337 0.073620126 0.16654694 0.33115408 0.366562 0.123150475
0.1408184 -0.09821237 0.100170255 0.06304154 -0.20541172 -0.12745433 -0.32369563 0.09869852
0.18967956 -0.12959409 -0.19319738 0.06282027 0.15293734 0.19341123 -0.0029271836 0.18533815
0.04640012 -0.1486563 0.06762451 -0.24301673 -0.13241439 -0.03175733 0.09505712 0.09314759
-0.13969277 0.004229111 0.1249218 0.017864313 -0.011941559 -0.18897682 -0.033978876 -0.02844345
-0.08237379 -0.026214663 0.14946367 0.2384104 0.0010836528 0.10226851 0.034385517 -0.13874365
0.011524224 -0.07027741 -0.16010335 -0.060920108 -0.13662192 0.015166266 -0.15849562 -0.0395535
-0.030313104 0.047664948 -0.016488506 0.056311917 0.07264969 0.05753742 0.0522612 0.028363079
-0.01075474 -0.007893807 -0.040723354 0.10350638 -0.015620444 -0.12977216 -0.026411925 0.18102683
-0.14966011 0.041963752 0.1649538 0.16805486 0.108137175 -0.21123655 -0.065886386 -0.10701785
0.009558424 0.11800539 -0.17255765 0.03602461 -0.15142779 -0.2647206 0.029679101 -0.23540437
0.031177023 0.25738668 -0.030476086 0.054524425 0.05985531 0.078916855 -0.16264993 0.1644338
-0.17451444 0.19753027 -0.10742879 0.17990568 -0.0015368246 0.21485877 0.24318455 -0.0867645
-0.19287641 -0.04891495 -0.08088356 0.065724276 -0.30688632 0.138263 0.10690263 0.15797818
0.14481111 -0.11444204 -0.0053523597 -0.30908465 0.18806827 -0.16025856 0.009027676 0.23735495
-0.003356934 0.030257607 0.07834796 0.10899713 -0.33965147 -0.1975688 -0.017702298 0.009817262
-0.21251972 0.2215025 0.06952391 0.20769337 0.18677536 0.15761864 0.07573515 -0.26945823
-0.076370254 -0.07449441 -0.09783762 -0.12650108 -0.08280691 -0.041551378 -0.06948862 -0.08832811
-0.071717635 0.2772851 0.15417854 -0.29686895 0.4166362 -0.154031 -0.10716529 0.079249255
-0.20483328 -0.04722188 -0.12974913 -0.21069518 0.051419027 0.04270618 -0.045920063 0.18918544
0.01597767 0.050352465 -0.000939863 0.21462525 0.04408131 -0.037396803 -0.010470754 0.010730445
0.025293645 -0.00046289264 -0.044597067 0.2021004 -0.06977662 0.12956715 0.10596279 -0.031869322
-0.11643807 -0.18706411 0.00033054914 0.054361917 0.047670387 -0.011976302 -0.03507847 0.0982014
0.036676973 -0.006291486 -0.06113938 -0.13979642 -0.054026 0.032766465 0.0938776 -0.015749121
-0.14011805 0.12882087 0.058667522 -0.020125452 -0.05904663 0.0853898 0.057729702 -0.096360885

conv2.bias f4 [32]
00000000: e742 60bc 409f 45bd de28 4abe 7ab3 84bd
00000010: cda0 54bd 7e55 64bc dc7c 423c c85c 7f3d
00000020: d798 b03c 2874 a1bc a42b 21bd 7482 9d3d
00000030: 4121 b13c 019e 87bb 61e7 8dbe aff0 e03d
00000040: 3339 a3bc a4c8 803d 9564 803e b93c e2bd
00000050: d2c5 14be e66e 69bd 0505 9a3c 790d cf3d
00000060: 599e adbe 3320 d23c a844 80bc d904 adbd
00000070: dcdb 1fbe 2037 203e 539b d4bd 2d1a 07bd
-0.013687826 -0.048247576 -0.19742152 -0.06479545 -0.051911164 -0.013936399 0.011870589 0.062344342
0.021557255 -0.019708708 -0.03934826 0.076908976 0.021622302 -0.0041387086 -0.2771559 0.10983407
-0.019924736 0.06288269 0.25076738 -0.11046738 -0.14528587 -0.056990527 0.018801222 0.101099916
-0.33909872 0.02565012 -0.015657738 -0.0844819 -0.15611213 0.15646029 -0.10381188 -0.032983948

conv3.weight f4 [3, 32, 5, 5]
00000000: 691d 27bb b890 0bbb 6d3a d2bb c5aa d2bb
00000010: 12a7 42ba 45fa 13bc 76b9 15bc d7af 02bc
00000020: 98c6 01bc e020 62bb a580 ddbb bf52 f9bb
00000030: 0db0 acbb 3026 09bc cc11 1ebc b72c c2ba
00000040: de95 28ba 0ac4 c0bb 4922 8ebb f0be 0abb
00000050: aa7b f0ba af75 3fbb 3654 4938 0f15 a9ba
00000060: c17c 2d3b db4e 223b e70c f1ba fd80 97bb
00000070: 44cb 313c d8c5 293c 9ab6 b5ba ce68 dab9
00000080: 7d71 1ebd 211b 20bd c4c6 08bb f902 433b
00000090: 1d9e 473c 4c85 483d bc27 473c 0c98 163b
000000a0: 2c17 04bb 5586 29bc 0612 1fbb acf4 e33b
000000b0: ad25 64bb 4c56 093b 3133 61ba 46c2 e2bb
000000c0: 043d 0dbb 1e30 77b9 8de0 fa3a a8c8 903a
000000d0: fbb6 12bb a041 e23a 23e7 8bbb 49da 0e3b
000000e0: 594d 00bc c1e4 d23b e85d 3e3b c9fc b238
000000f0: ef5f bd3c 7341 b2bc 07dd b2bc 098f 8d3c
00000100: ac31 17ba 2d7f 443c 3969 703c 6733 f3bc
00000110: 5e2a 153b d4d5 69bb a7f9 43bb a6e4 f73b
00000120: 535a 313c 77e8 2f3c 45af 12bb ebab d1ba
00000130: 67ac 0abc e454 10bd 9a3d 1dbc 683a 64ba
00000140: ac05 953a 9391 f7b9 e532 01bc 2316 45bb
00000150: 446b 82ba 3ecf 803a 5cd7 ff3a ea6b 8e3c
00000160: 5056 53bb 748c 1abb 184d 9b3a 4871 073c
00000170: 2ef5 9d3c 8f52 0cba 9a46 b8ba e2ed 5eba
00000180: ac45 673b da86 803c 6bd9 993a b182 00ba
00000190: 1190 813b f7b4 f8bb f56c 31bc 158e 553a
000001a0: cea3 db39 a59c f6bb 8e4d 13bc 8717 b2ba
000001b0: 5f37 1439 67a5 1abc 3efb 09bc f7ff 99bb
000001c0: 917f 363c 4671 8cbc e659 90bb 3c59 9dba
000001d0: 2ea4 f2bb 47e0 2fbc eb11 08bc d6d3 ee3a
000001e0: 6f1b a2bb e071 b4bb 4f8e f8bb 386e 33b9
000001f0: 3d97 ecbb 5bb6 bd3b 01cd a5ba 4f89 d6ba
00000200: 8f10 7838 020f 663b e785 01bb 02f9 18bc
00000210: 35e9 f4bb c7b4 9dbc 75b4 27bb 2fbb 82ba
00000220: edd8 96bc bbdf 833d 6ee9 7cbb 76b9 e3bb
00000230: 3015 e93a bbcb 26bc 936a b13a 35cc 05bc
00000240: be37 68bb 05b2 d83b 7904 613a 8a53 6e3b
00000250: 5f36 68b9 583f 023b e2f4 fbb9 dc3d 02bb
00000260: ef06 b6bb cbc7 a3ba bf7c 793a ced7 caba
00000270: a5ca 70bb f3dc e13a 661a c6bb 8922 58bb
00000280: 190c 84bb c2b0 c7bb dbd1 0c3c 7a07 65bc
00000290: 186a daba 4492 8fba bf0e 13bb 53df 66bb
000002a0: b092 b4bb 212e 243b c27a 133b e413 1dbb
000002b0: d951 8bbb b454 8e39 8bab e239 c4fd c53b
000002c0: e9a9 0e3c fc8d 2d3c 249e ddb9 196d 1abc
000002d0: 26c5 9f3c 425f 533b 7464 7c3a a588 323a
000002e0: d7dc b1bc 98a2 bb3a 730d 33bc c654 8dbc
000002f0: 4f7c a43b 3b8e 983c 3d81 293c 3735 433c
00000300: b13d ba3b 6fae 4bbc 86c9 58bb 1f14 103c
00000310: 6580 963b 543c 5939 56cf 35bc 97c0 acbc
00000320: 4b86 ac3b d7f0 c83b 4084 c13b c974 433b
00000330: 52f2 123c 7af1 223c fb0a 393b 8925 713c
00000340: a83b 073c a4c0 153c 8118 013c 204b 6b3c
00000350: f765 3e3c 7dc1 203c 0cfb 4d3c 4c8b 993b
00000360: 4c24 0c3c 5693 263c e296 fd3b acd3 1f3c
00000370: 72c4 f23b ef84 643b 37f1 b53b 65ed 113c
00000380: 1f3e 0c3c a3d7 273c a2ff 3b3c f75c 3e3c
00000390: ebd1 883c b3b5 f2bc 0646 fbbc 6d7e adbc
000003a0: b989 633c 0060 8bba c360 873c 09ad 15bc
000003b0: 60fb 323c 3e1f b03c 9f50 8b3c 92bb 02bd
000003c0: b969 e23b 3cc8 de3c 7f8b b73a 397b 973c
000003d0: 7071 383c c1b4 c8bc be7c 14bd f760 a43b
000003e0: 3b63 fa3c 0bbb b6bc ae8e 463b 60d3 64b9
000003f0: 2743 b63b 7f22 f33b 172c 403a a86f f73a
-0.0025499708 -0.0021295976 -0.0064156563 -0.0064290487 -0.0007425408 -0.009031837 -0.009138456 -0.007976494
-0.007920884 -0.0034504458 -0.0067597204 -0.007608741 -0.0052700103 -0.008370921 -0.009647798 -0.0014814351
-0.00064310234 -0.0058827447 -0.004337583 -0.0021170937 -0.0018347402 -0.0029214432 4.8000562e-05 -0.0012899953
0.0026472064 0.002476624 -0.0018390686 -0.004623531 0.010851685 0.010362111 -0.0013863624 -0.00041658286
-0.03868245 -0.039088372 -0.0020870427 0.002975641 0.012183693 0.048955247 0.0121554695 0.002297881
-0.0020155413 -0.010346969 -0.0024272217 0.0069566574 -0.0034812496 0.0020955978 -0.0008590697 -0.006920132
-0.002155126 -0.0002357368 0.0019140408 0.0011046128 -0.0022386897 0.0017261989 -0.004269497 0.0021797589
-0.007830941 0.006435961 0.0029047672 8.534786e-05 0.023117034 -0.021759724 -0.02183391 0.017280119
-0.00057675946 0.011993212 0.014673525 -0.029687596 0.0022760849 -0.003568043 -0.0029903443 0.007565099
0.010824758 0.010736576 -0.00223823 -0.001599667 -0.0084639555 -0.035237208 -0.0095972065 -0.0008706213
0.0011369488 -0.00047219972 -0.007885669 -0.003007301 -0.000995018 0.0009827388 0.0019519138 0.017385442
-0.0032247491 -0.0023582252 0.0011848537 0.008266754 0.01928195 -0.00053528784 -0.0014059127 -0.0008504075
0.003528933 0.015689302 0.0011737769 -0.0004902287 0.0039539416 -0.007589932 -0.0108292 0.0008146477
0.0004189298 -0.0075259977 -0.008990658 -0.0013587334 0.00014135007 -0.009438849 -0.008421717 -0.004699703
0.011138813 -0.017143857 -0.004405248 -0.0012004743 -0.0074048257 -0.010734624 -0.008305053 0.0018221091
-0.004947118 -0.005506739 -0.007585324 -0.0001711183 -0.0072201774 0.0057895607 -0.0012649597 -0.0016367825
5.914323e-05 0.003510416 -0.001976365 -0.009336712 -0.0074740895 -0.01925124 -0.0025589739 -0.0009973998
-0.018413985 0.064391576 -0.0038591283 -0.006949599 0.0017782804 -0.010180409 0.001353579 -0.0081663625
-0.0035433616 0.0066130185 0.00085837353 0.003636571 -0.00022145499 0.0019874182 -0.00048056903 -0.0019873297
-0.005555026 -0.0012495456 0.0009517185 -0.0015475692 -0.003674188 0.0017231986 -0.0060456274 -0.003297957
-0.0040297625 -0.006094069 0.008594955 -0.013978833 -0.0016663698 -0.0010953625 -0.002243921 -0.0035228326
-0.0055106506 0.002505191 0.002250359 -0.0023968155 -0.0042517004 0.0002714746 0.0004323389 0.006042214
0.008707502 0.010592934 -0.0004227023 -0.009425425 0.019503187 0.0032252823 0.0009628006 0.0006810523
-0.02171175 0.0014315424 -0.0109284995 -0.017252337 0.0050197016 0.018622508 0.010345754 0.011914543
0.0056836237 -0.012431725 -0.0033079102 0.00879386 0.0045929425 0.00020717207 -0.011096796 -0.021087928
0.0052650324 0.006132226 0.005905658 0.0029824248 0.0089689065 0.009945268 0.0028235305 0.014718422
0.008253969 0.009140167 0.007879377 0.014361173 0.01162099 0.009811756 0.012572061 0.004685795
0.008553576 0.010166964 0.007738934 0.009755056 0.007408672 0.0034869274 0.0055524367 0.008906697
0.008559733 0.010244283 0.011474522 0.011618844 0.01670166 -0.029627657 -0.030673038 -0.021178449
0.013887816 -0.0010633469 0.016525632 -0.009135493 0.01092419 0.021499272 0.017006217 -0.031917162
0.006909576 0.027195089 0.0014003365 0.018491374 0.011257514 -0.024500253 -0.036251776 0.005016442
0.030564895 -0.022305986 0.0030297446 -0.00021822518 0.0055622044 0.0074198837 0.00073307886 0.0018877881

conv3.bias f4 [3]
00000000: 5978 633b 1b76 883b 8852 b43b
0.0034709184 0.00416447 0.0055030026
